House-Price-Prediction/best_model.pt (torch, 149158 bytes, 5 tensors)

fc1.weight f4 [256, 13]
-0.017800787 -0.09084413 0.21586683 -0.24673697 -0.003740089 -0.24777219 0.1027508 0.1818216
-0.13174823 0.037743837 -0.20203847 -0.18869467 0.2278683 0.17560698 0.1460881 -0.004582708
-0.19228467 -0.061102875 -0.05173488 0.03800971 0.2541094 -0.23629054 -0.0704156 0.09962744
-0.10066521 0.11789028 -0.23391604 0.2378328 -0.1253434 -0.2720012 -0.028556665 -0.20799294
-0.23047504 -0.27482283 0.15228038 -0.026833223 0.17037931 0.0984065 0.18342656 0.014143958
0.20218775 -0.13398434 0.0699724 0.050048195 -0.078321345 0.14835373 -0.1873252 -0.112906486
0.102490924 -0.07384007 -0.16736555 0.04208673 -0.19575708 -0.27905378 0.23860295 -0.16133761
-0.044855863 -0.2000148 -0.2246651 -0.022653107 0.06507203 -0.0064482517 -0.046205975 -0.11918479
-0.18581611 -0.22636423 0.08689923 -0.12531674 0.10015007 0.26857373 -0.02644435 0.17294703
-0.113932446 0.115781724 0.06118855 -0.10862806 0.094505146 0.14781287 -0.10806582 0.21442753
0.07826794 0.13344647 -0.14374785 -0.12552734 -0.16131161 0.013423574 -0.23368457 -0.0095010325
-0.07983553 0.21098036 0.037626572 0.24121661 0.26599166 -0.051136423 0.07759497 -0.26450583
-0.038720712 0.15795776 0.18062794 -0.24328987 0.06640126 0.24111873 -0.06105356 -0.16792583
0.15711884 0.07536537 -0.014501563 -0.19307993 0.09542911 -0.13753478 -0.24298628 0.06694227
-0.18987393 0.13653745 -0.20156246 0.27146253 0.22946392 0.23405226 -0.22268645 -0.11068991
-0.096110076 0.02644995 0.112727754 0.2004485 0.18910009 0.04179139 -0.001029554 0.00916047
0.15447393 -0.1339011 -0.16245341 0.18173642 -0.17645322 0.051603768 0.04247354 -0.28216317
-0.19175495 0.11445892 0.010479143 -0.22225136 -0.12709102 -0.22984044 -0.111811645 -0.106546134
0.21955526 0.12709309 0.17488897 -0.05276138 -0.26230732 0.16327898 -0.06962878 -0.043896865
0.15986782 0.20891467 0.2571242 0.24511918 -0.17308536 -0.20316009 -0.20633371 0.029470323
0.24978748 -0.24729018 -0.26339212 0.07479925 -0.08869734 0.23969255 0.11185216 -0.0069048307
0.05702012 -0.1200144 -0.21175241 0.23053546 0.080596045 0.17668231 0.023489606 0.15311287
0.12060867 -0.27182117 0.20915033 0.2442765 0.11568942 0.21513967 -0.010146028 0.0782446
0.091494754 -0.039163 -0.03020857 0.05097996 -0.06199006 0.2416202 -0.12777439 0.1531519
-0.21843463 -0.20590733 0.06605005 -0.22004324 0.17122813 0.027405735 0.089491084 0.2397591
-0.049092975 -0.1517277 -0.20103271 -0.11142938 0.12694919 0.25341082 0.1041931 -0.14544974
0.08482269 0.04775409 -0.12768131 0.17120264 0.13347174 0.0261936 -0.1894627 -0.20807394
0.2712882 0.039974928 0.07531937 -0.2647217 -0.22214867 -0.13983408 -0.18752775 0.08549445
0.17760573 0.275802 0.13204922 -0.16086662 0.20957847 -0.13534214 0.006135946 0.12650497
-0.14835311 0.19538888 0.1386096 0.12089854 0.04633589 0.113174096 0.09971153 -0.12524393
0.1868785 0.08514802 -0.24297714 0.11904231 -0.16162269 -0.24726522 0.10398295 -0.19049878
0.25702208 -0.10018905 -0.029178753 -0.24215268 0.11929157 -0.057216767 -0.06793274 -0.24056435
00000000: f5d2 91bc 7d0c babd 320c 5d3e 9ea8 7cbe
00000010: 481c 75bb feb7 7dbe 036f d23d 712f 3a3e
00000020: 02e9 06be 4899 1a3d 2ce3 4ebe 2d39 41be
00000030: 4f56 693e 51d2 333e 1e98 153e 8a2a 96bb
00000040: 46e6 44be 0247 7abd f4e7 53bd 12b0 1b3d
00000050: a11a 823e 26f6 71be 0e36 90bd 7909 cc3d
00000060: 9029 cebd 7670 f13d b087 6fbe 718a 733e
00000070: 055a 00be be43 8bbe abef e9bc 1afc 54be
00000080: a601 6cbe 94b5 8cbe 63ef 1b3e 59d1 dbbc
00000090: ea77 2e3e 5989 c93d 2cd4 3b3e 0fbc 673c
000000a0: 4e0a 4f3e 3133 09be b14d 8f3d 56ff 4c3d
000000b0: f166 a0bd 0aea 173e 2dd2 3fbe 843b e7bd
000000c0: c3e6 d13d 7639 97bd e061 2bbe 2363 2c3d
000000d0: 8b74 48be 23e0 8ebe 5554 743e b035 25be
000000e0: c8ba 37bd aed0 4cbe 9c0e 66be 0293 b9bc
000000f0: 7c44 853d db4b d3bb 7a42 3dbd 2817 f4bd
00000100: 9446 3ebe 06cc 67be 39f8 b13d 0853 00be
00000110: 7b1b cd3d 7f82 893e d2a1 d8bc 0719 313e
00000120: 6a55 e9bd f81e ed3d d8a0 7a3d 6378 debd
00000130: ea8b c13d 425c 173e 9d51 ddbd e492 5b3e
00000140: f14a a03d 31a6 083e a332 13be 3d8a 00be
00000150: df2e 25be 8dee 5b3c 024b 6fbe 38aa 1bbc
00000160: cf80 a3bd 3c0b 583e 521e 1a3d 7d01 773e
00000170: 0f30 883e 6d74 51bd 1dea 9e3d 4f6d 87be
00000180: 9c99 1ebd aebf 213e 88f6 383e fb20 79be
00000190: 62fd 873d d4e7 763e 4c13 7abd c0f4 2bbe
000001a0: c3e3 203e 2959 9a3d f797 6dbc bfb6 45be
000001b0: 5670 c33d ebd5 0cbe 65d1 78be 0719 893d
000001c0: 506e 42be 79d0 0b3e 6466 4ebe 23fd 8a3e
000001d0: 97f8 6a3e 65ab 6f3e eb07 64be 64b1 e2bd
000001e0: 5cd5 c4bd 91ad d83c cfdd e63d 5f42 4d3e
000001f0: 74a3 413e 732d 2b3d 1af2 86ba cc15 163c
00000200: 6a2e 1e3e 5f1d 09be 305a 26be 1d19 3a3e
00000210: 27b0 34be 795e 533d bcf8 2d3d b177 90be
00000220: 695b 44be 7069 ea3d b6b0 2b3c dc95 63be
00000230: 2624 02be 4b5b 6bbe 81fd e4bd dc34 dabd
00000240: 18d3 603e b124 023e 1816 333e 511c 58bd
00000250: 254d 86be 9b32 273e 8999 8ebd 33cd 33bd
00000260: 64b4 233e baed 553e c8a5 833e 8600 7b3e
00000270: 4a3d 31be 3309 50be 2549 53be bf6b f13c
00000280: 4ac8 7f3e a339 7dbe 55db 86be 5930 993d
00000290: f3a6 b5bd f771 753e bf12 e53d eb41 e2bb
000002a0: ee8d 693d 1cca f5bd a0d5 58be 7d11 6c3e
000002b0: 8a0f a53d 35ec 343e 466d c03c 9fc9 1c3e
000002c0: ae01 f73d 252c 8bbe 812b 563e 9e23 7a3e
000002d0: 93ee ec3d 934d 5c3e 873b 26bc b43e a03d
000002e0: 9a61 bb3d 6269 20bd f777 f7bc 5dd0 503d
000002f0: 4ae9 7dbd 496b 773e 4ad7 02be dad3 1c3e
00000300: 54ad 5fbe 5fd9 52be 4045 873d 0453 61be
00000310: 6d56 2f3e fe81 e03c 1a47 b73d 6983 753e
00000320: b715 49bd 825e 1bbe 85db 4dbe 1635 e4bd
00000330: f8fe 013e 10bf 813e 3163 d53d c7f0 14be
00000340: 85b7 ad3d cb99 433d e4be 02be bf4f 2f3e
00000350: d1ac 083e f693 d63c 8302 42be 5611 55be
00000360: 49e6 8a3e c0bc 233d 0b41 9a3d 9a89 87be
00000370: f17a 63be aa30 0fbe 4607 40be b717 af3d
00000380: 47de 353e eb35 8d3e e937 073e 38ba 24be
00000390: bd9b 563e 2197 0abe 0c10 c93b 858a 013e
000003a0: e1e9 17be 0614 483e adef 0d3e a799 f73d
000003b0: b4ca 3d3d d2c7 e73d 8f35 cc3d f23f 00be
000003c0: 145d 3f3e 1662 ae3d 00cf 78be 74cc f33d
000003d0: 6b80 25be 1833 7dbe 03f5 d43d 1d12 43be
000003e0: 6698 833e eb2f cdbd 4808 efbc dff6 77be
000003f0: 234f f43d 215c 6abd 5220 8bbd 8056 76be

fc1.bias f4 [256]
-0.258452 0.13750532 -0.053088646 0.1964046 -0.08398959 -0.23424158 0.07543077 0.085779525
0.09094817 -0.17916994 -0.063613355 -0.21886179 0.14025137 0.21440183 -0.2331179 0.22648919
-0.11300757 0.14759889 -0.1639316 0.038658172 0.06877289 -0.20456514 0.04133915 -0.117435835
0.06571436 0.14600964 0.034228016 0.28040528 -0.07329784 0.2005212 0.026065852 0.1629051
0.19321847 0.12249882 0.25781983 -0.021153456 0.08896623 -0.01187348 0.09577911 0.24656203
-0.27237204 -0.0626197 0.049785715 0.22850312 0.18893746 0.26647288 0.035378687 -0.2576857
0.17109177 0.28382784 -0.24608417 -0.084763944 0.23234658 -0.20645721 -0.089267604 -0.096411474
-0.07825795 -0.07289489 0.17814778 0.17068058 -0.09744194 0.14240606 -0.24193677 0.23712227
0.17193232 0.14741495 0.16297624 -0.071454324 -0.08797877 -0.011592077 -0.054890502 0.14819925
0.15707986 -0.041644763 -0.009269803 0.109376214 -0.08957878 0.079801194 0.07433139 0.06700987
0.14109093 0.11477208 0.10557457 0.13019244 0.02712969 0.014254709 -0.1479583 0.16027667
0.13023674 -0.07867554 0.09331426 -0.16974433 -0.23288806 -0.027430056 0.17188275 -0.196752
0.25578478 0.17194024 0.18262918 0.22949779 -0.029950835 -0.110195324 0.11385095 -0.13548414
-0.013487541 0.19937885 -0.12738292 0.097868316 -0.12486806 0.0352952 0.0039955145 -0.24167715
0.046204206 -0.13905598 -0.13329467 -0.012350224 -0.16434588 -0.22466768 -0.13498133 -0.24575308
-0.15572202 -0.20361105 0.17551345 -0.15314807 -0.16635315 -0.25334325 -0.26399 -0.2515117
0.17762432 0.21868823 0.03374789 0.21748832 0.14867301 -0.23817727 -0.02899343 -0.1825979
0.12168858 0.067107 -0.055755652 0.23319225 -0.25975674 -0.028602462 -0.07786804 -0.15574287
-0.18662804 0.2584261 0.12839027 -0.029561479 -0.0663012 -0.080387585 -0.07125277 0.108849086
0.22439569 0.058850326 -0.013538758 -0.12387662 0.09384047 0.2340924 0.15185183 0.12403716
0.19706826 -0.0061274776 -0.2532047 -0.05314367 -0.13589065 0.05004655 -0.16229986 -0.18073915
-0.21061967 0.21985343 0.17998292 -0.03715524 -0.045548767 0.062022783 0.025527934 -0.11849325
0.027569097 -0.27920246 0.008842143 0.28168535 0.1798257 -0.037566826 0.13675453 0.10154698
0.08703911 -0.022797186 0.24406452 0.2264128 0.08146619 0.032156102 -0.14375307 0.098293036
0.26490197 0.06502494 -0.108843364 0.10987776 -0.087443106 -0.20108286 0.26654714 0.14159383
0.19500656 -0.22778217 0.19310674 -0.004628503 -0.09921631 -0.24308062 -0.120789535 -0.19891444
-0.22882932 0.11817983 -0.010124378 0.04366325 -0.0004160048 -0.008838702 0.17388436 0.27925676
0.26959118 -0.25669178 -0.0058428333 -0.010323639 -0.13829093 0.27363485 -0.031345263 0.14129487
0.0750665 0.05206753 -0.21067615 -0.18536176 0.25335297 -0.12022523 0.10734604 0.19699027
-0.019576807 -0.24036017 0.19273512 -0.19477853 -0.1258939 0.061539322 -0.23490943 0.26590693
0.0018883728 -0.07406464 -0.12520961 0.15602751 0.11954323 -0.0757692 0.22284023 -0.039805938
-0.21314019 -0.015683759 0.06738309 -0.048124094 -0.06665679 0.03602118 0.19997028 -0.1052632
00000000: d253 84be 32ce 0c3e 7b73 59bd 4a1e 493e
00000010: bc02 acbd 06dd 6fbe 737b 9a3d 2dad af3d
00000020: 0943 ba3d 5378 37be b847 82bd 4e1d 60be
00000030: 0e9e 0f3e 278c 5b3e 75b6 6ebe c8ec 673e
00000040: 8370 e7bd 2a24 173e afdd 27be 0858 1e3d
00000050: cdd8 8c3d 8679 51be 3e53 293d 3382 f0bd
00000060: 4095 863d 8d83 153e ad32 0c3d 4891 8f3e
00000070: 2e1d 96bd 6e55 4d3e 0e88 d53c 98d0 263e
00000080: 10db 453e a9e0 fa3d f600 843e 034a adbc
00000090: ed33 b63d fc88 42bc d727 c43d c27a 7c3e
000000a0: 5974 8bbe c23e 80bd 1bec 4b3d b9fc 693e
000000b0: d278 413e 226f 883e 3ee9 103d 61ef 83be
000000c0: ae32 2f3e e251 913e 7dfd 7bbe b898 adbd
000000d0: 43ec 6d3e 8569 53be efd1 b6bd 6173 c5bd
000000e0: b445 a0bd eb49 95bd 5f6c 363e e4c6 2e3e
000000f0: a48f c7bd e5d2 113e 46be 77be 2ed0 723e
00000100: 070f 303e f2f3 163e 3ee3 263e a556 92bd
00000110: 372e b4bd b2ec 3dbc ddd4 60bd 8bc1 173e
00000120: 8bd9 203e b393 2abd 5fe0 17bc a300 e03d
00000130: 1475 b7bd cf6e a33d 0e3b 983d 793c 893d
00000140: 247a 103e a00d eb3d 7b37 d83d 2b51 053e
00000150: 153f de3c 958c 693c 6182 17be 911f 243e
00000160: c85c 053e a420 a1bd 8c1b bf3d 75d1 2dbe
00000170: 357a 6ebe ffb4 e0bc 0802 303e 5b79 49be
00000180: 39f6 823e 1a11 303e 2503 3b3e 7801 6b3e
00000190: 745b f5bc 16ae e1bd b02a e93d 5bbc 0abe
000001a0: d9fa 5cbc f829 4c3e ab70 02be 2f6f c83d
000001b0: d3ba ffbd b391 103d ceec 823b 377a 77be
000001c0: 9f40 3d3d b164 0ebe 667e 08be 9858 4abc
000001d0: 494a 28be 490f 66be 8c38 0abe b2a6 7bbe
000001e0: 9875 1fbe 6a7f 50be ccb9 333e d9d2 1cbe
000001f0: 7b58 2abe 35b6 81be b329 87be 24c6 80be
00000200: 26e3 353e cfef 5f3e 3a3b 0a3d 42b5 5e3e
00000210: bd3d 183e bee4 73be a183 edbc f2fa 3abe
00000220: dd37 f93d 656f 893d 0a60 64bd f3c9 6e3e
00000230: d6fe 84be b64f eabc 4779 9fbd 0f7b 1fbe
00000240: 6c1b 3fbe 6d50 843e bd78 033e ea2a f2bc
00000250: ecc8 87bd 3fa2 a4bd f9ec 91bd 45ec de3d
00000260: fcc7 653e 0a0d 713d abd1 5dbc 06b3 fdbd
00000270: 6f2f c03d ebb5 6f3e 0c7f 1b3e 3207 fe3d
00000280: 43cc 493e 02c9 c8bb 0ca4 81be 2dad 59bd
00000290: eb26 0bbe 9cfd 4c3d ef31 26be af13 39be
000002a0: afac 57be 4221 613e 714d 383e 1830 18bd
000002b0: 5891 3abd 9a0b 7e3d f51f d13c 97ac f2bd
000002c0: 96d8 e13c a0f3 8ebe a3de 103c 1039 903e
000002d0: 3a24 383e acdf 19bd 6109 0c3e ddf7 cf3d
000002e0: 9041 b23d 2ac1 babc 0dec 793e c2d8 673e
000002f0: bfd7 a63d 1eb6 033d 0134 13be dc4d c93d
00000300: 3ba1 873e cc2b 853d 45e9 debd 9707 e13d
00000310: 5f15 b3bd aae8 4dbe de78 883e f9fd 103e
00000320: cdaf 473e bb3f 69be c6bd 453e b3aa 97bb
00000330: ec31 cbbd 20ea 78be 8160 f7bd 3ab0 4bbe
00000340: 3c52 6abe 4408 f23d b8e0 25bc 3cd8 323d
00000350: 381b dab9 34d0 10bc be0e 323e befa 8e3e
00000360: db07 8a3e 1b6d 83be 3d75 bfbb 7b24 29bc
00000370: 239c 0dbe de19 8c3e e463 00bd 9aaf 103e
00000380: 77bc 993d c344 553d 7dbb 57be 79cf 3dbe
00000390: 7bb7 813e a538 f6bd 3ed8 db3d d1b7 493e
000003a0: 8a5f a0bc fa20 76be 5b5c 453e 0674 47be
000003b0: 55ea 00be a810 7c3d 198c 70be f424 883e
000003c0: 4783 f73a 34af 97bd f336 00be adc5 1f3e
000003d0: 15d3 f43d e22c 9bbd 3b30 643e 8d0b 23bd
000003e0: 6c41 5abe 3a7b 80bc 2500 8a3d c51d 45bd
000003f0: 5b83 88bd f28a 133d 02c5 4c3e 3c94 d7bd

fc2.weight f4 [128, 256]
-0.050661772 0.010794341 0.046036124 0.004833294 0.05577479 -0.0062890677 0.02054554 -0.00053100544
0.062744424 -0.047446836 -0.002744658 -0.024694856 -0.03426136 0.024732247 0.03617267 0.03845469
0.031288724 0.04998198 -0.04583699 0.0477501 0.018830772 0.045617953 -0.0076192394 -0.023651725
-0.030225601 -0.013763245 -0.025085337 0.029079562 -0.006725042 0.0017409386 -0.009465851 -0.017154748
0.06406565 -0.022753429 -0.015781999 -0.021396285 0.021090679 0.059794635 -0.010839816 0.009758677
0.024430504 0.007840419 -0.056587618 0.04047233 0.044574816 -0.008104164 0.021925045 0.049139336
0.029695647 0.028218342 -0.016141543 0.025228499 0.06417468 0.037708048 0.040662568 -0.057012796
-0.05008074 0.055598482 0.032446783 0.018043647 -0.04271556 -0.009535585 0.025333773 -0.004637221
0.025440842 0.049070306 -0.038385585 -0.031374756 -0.009714434 0.003645426 -0.017618895 0.064809985
-0.036146652 0.024526412 -0.039681215 -0.044265684 0.05033719 -0.05629175 -0.00045143144 0.03737168
0.033416126 -0.06200257 -0.054017227 -0.04990843 -0.03907274 0.015931474 0.03090193 -0.040285837
0.00643962 -0.024774415 -0.049849715 -0.008283105 0.036010344 -0.00858092 -0.0117682135 -0.036598183
-0.018546155 -0.015042847 -0.0395211 0.06310649 0.06871307 -0.05114975 -0.0013513847 -0.006882476
0.044709682 0.035425086 -0.04245316 -0.031911477 0.03522474 -0.009316425 0.015661838 -0.016728628
-0.043780252 -0.010473007 -0.0096673565 0.024029315 0.0117080305 0.0566449 0.002824967 -0.034560382
0.035994664 0.021114333 0.020440755 -0.000107898784 -0.013682995 -0.00038725615 0.04358586 -0.0009802035
-0.024630148 -0.011740055 0.057770226 0.042893305 0.061679725 0.050021876 -0.039141655 0.019306552
-0.038153876 -0.0260502 0.030746419 -0.043765917 -0.013654411 0.041133516 0.025370106 0.04438778
-0.0064699976 0.06846017 0.03837511 0.020133017 0.040315714 0.031656336 0.0063518086 0.021549476
-0.01210286 -0.06903101 0.031286333 0.03983862 0.048424605 -0.0011060496 -0.011978912 -0.038780283
-0.043800898 0.034040883 -0.04963246 -0.011803967 0.028621007 -0.008425492 0.03445002 -0.018263772
0.01888691 0.009085421 -0.05777428 -0.053185143 -0.055325396 0.034547474 0.06467204 -0.019908393
0.020485135 -0.026957633 -0.035671823 -0.042640965 0.0025665557 -0.004010033 0.002930489 -0.020224035
0.005518376 -0.042832766 0.044653144 0.029153123 0.0019454195 -0.028371466 -0.031346787 -0.04198447
0.008430885 0.034705766 0.026934208 0.039703645 0.026667185 -0.05112519 0.010849059 0.026585937
0.02170691 0.03155692 0.02615294 -0.04696882 -0.06268528 -0.053054318 -0.051298674 0.0310823
0.05116412 0.046728596 -0.050351582 0.015361507 0.06717597 -0.030874772 0.045490578 -0.02557185
-0.0054840758 0.047520522 -0.010973884 0.00066729716 -0.037521657 0.025159484 0.035207093 -0.055585258
0.03933598 0.031551942 0.052930195 0.030980738 0.027840711 -0.036084656 -0.016250556 -0.021657877
0.01881333 0.0067261104 0.021923207 0.065346725 0.025093831 -0.02544188 0.01950655 0.033832192
-0.027629035 -0.01195492 0.00015607219 0.051373348 -0.021143261 0.051225334 0.012515854 -0.037584193
0.04023817 -0.029161789 0.0601241 0.028880475 0.04250098 -0.040926296 -0.020616967 -0.015288262
00000000: b882 4fbd bfda 303c 6090 3c3d 9c60 9e3b
00000010: 1b74 643d 8614 cebb 1f4f a83c 2c33 0bba
00000020: 2680 803d 9d57 42bd b8df 33bb de4c cabc
00000030: a455 0cbd 489b ca3c cb29 143d aa82 1d3d
00000040: 9b28 003d e8b9 4c3d 91bf 3bbd 9c95 433d
00000050: fe42 9a3c e4d9 3a3d d0aa f9bb 43c1 c1bc
00000060: ae9b f7bc 3c7f 61bc c47f cdbc 4338 ee3c
00000070: be5d dcbb 3530 e43a a816 1bbc 1d88 8cbc
00000080: da34 833d 6665 babc 4049 81bc 4347 afbc
00000090: 5cc6 ac3c 38eb 743d 7c99 31bc dce2 1f3c
000000a0: 7b22 c83c 1a75 003c 6bc8 67bd 50c6 253d
000000b0: 1594 363d 54c7 04bc 279c b33c 5446 493d
000000c0: 4944 f33c 272a e73c 453b 84bc ffab ce3c
000000d0: 046e 833d c173 1a3d cb8d 263d 4086 69bd
000000e0: 7621 4dbd 3cbb 633d ebe6 043d 45d0 933c
000000f0: 83f6 2ebd 243b 1cbc c688 cf3c d4f3 97bb
00000100: 5069 d03c f2fd 483d 343a 1dbd d182 00bd
00000110: 4a29 1fbc 19e8 6e3b 8055 90bc 19bb 843d
00000120: 830e 14bd 9deb c83c c588 22bd ef4f 35bd
00000130: 5f2e 4e3d 2e92 66bd 1aae ecb9 0c13 193d
00000140: 59df 083d 68f6 7dbd 2b41 5dbd c86c 4cbd
00000150: bd0a 20bd b982 823c 0b26 fd3c c302 25bd
00000160: 7303 d33b b7f3 cabc 372f 4cbd dcb5 07bc
00000170: 957f 133d fd96 0cbc 77cf 40bc fae7 15bd
00000180: 1bee 97bc 4676 76bc e1e0 21bd fa3d 813d
00000190: 70b9 8c3d 6682 51bd f220 b1ba 6586 e1bb
000001a0: 8021 373d e519 113d 5de3 2dbd 9cb5 02bd
000001b0: d147 103d eba3 18bc 414d 803c 7a0a 89bc
000001c0: ec52 33bd fa96 2bbc d563 1ebc 20d9 c43c
000001d0: 0ad3 3f3c 7c04 683d 1523 393b 308f 0dbd
000001e0: 246f 133d f7f7 ac3c 5f73 a73c b847 e2b8
000001f0: a42e 60bc a408 cbb9 1687 323d 2c7a 80ba
00000200: 2ac5 c9bc 5c59 40bc 79a0 6c3d e4b0 2f3d
00000210: e1a3 7c3d bde3 4c3d 0053 20bd c628 9e3c
00000220: 3d47 1cbd 3b67 d5bc eadf fb3c e443 33bd
00000230: c0b6 5fbc 9e7b 283d f8d4 cf3c f6cf 353d
00000240: 4602 d4bb d834 8c3d 382f 1d3d ffed a43c
00000250: 1722 253d 13aa 013d d522 d03b 8788 b03c
00000260: 134b 46bc 2160 8dbd 1926 003d d22d 233d
00000270: e158 463d def8 90ba 3343 44bc 13d8 1ebd
00000280: 9268 33bd 746e 0b3d 684b 4bbd 6d65 41bc
00000290: 9a76 ea3c 130b 0abc 771b 0d3d e89d 95bc
000002a0: b9b8 9a3c 05db 143c b9a4 6cbd aad8 59bd
000002b0: e29c 62bd a781 0d3d c672 843d ed16 a3bc
000002c0: 71d0 a73c 41d6 dcbc 9e1c 12bd 4ba8 2ebd
000002d0: a933 283b 9866 83bb 720d 403b e0ac a5bc
000002e0: 7ed3 b43b 6971 2fbd 37e6 363d 88d2 ee3c
000002f0: 72fd fe3a 476b e8bc 7d65 00bd e8f7 2bbd
00000300: b221 0a3c a227 0e3d 21a5 dc3c 4aa0 223d
00000310: 2475 da3c a668 51bd 40c0 313c c0ca d93c
00000320: b1d2 b13c d441 013d b13e d63c 6162 40bd
00000330: 2461 80bd 7c4f 59bd 8f1e 52bd 4fa0 fe3c
00000340: 7891 513d 7c66 3f3d 763d 4ebd d5ae 7b3c
00000350: 8e93 893d 17ed fcbc 5454 3a3d 0e7c d1bc
00000360: c3b3 b3bb e1a4 423d cecb 33bc 8eed 2e3a
00000370: 4fb0 19bd 431b ce3c 5035 103d 5ead 63bd
00000380: c41e 213d 9c3c 013d 55cd 583d 51cb fd3c
00000390: 3412 e43c 81cd 13bd e31f 85bc dc6b b1bc
000003a0: 6a1e 9a3c b466 dc3b 4c98 b33c 81d4 853d
000003b0: 9491 cd3c 7d6b d0bc 33cc 9f3c a093 0a3d
000003c0: 4956 e2bc 92de 43bc 4fa7 2339 dc6c 523d
000003d0: a234 adbc a8d1 513d 4c0f 4d3c e2f1 19bd
000003e0: c8d0 243d b4e4 eebc b044 763d bf96 ec3c
000003f0: 8215 2e3d 55a2 27bd eae4 a8bc 9e7b 7abc

fc2.bias f4 [128]
0.017511003 -0.047105882 -0.03857562 0.010402688 0.06393063 0.01385354 0.060492527 0.046685394
0.05053551 0.06963003 -0.024212947 0.022623654 -0.031650007 0.0006077116 -0.027417462 0.03934295
-0.0025108445 -0.017602863 0.05655528 0.010588159 0.055199202 0.018475143 -0.03112065 0.057625752
-0.006877909 -0.033558205 -0.048682638 -0.050705686 0.04046507 0.032702014 -0.03097844 -0.008675614
0.03484554 -0.0022916228 0.040390678 0.01911226 -0.0022377034 0.027588872 0.0071900077 0.008100485
0.013015222 -0.053725306 0.052628923 -0.051589046 0.027557094 0.041654088 0.05122662 -0.006606295
-0.016986547 -0.038617354 0.058355145 0.01593585 0.0636884 -0.0410289 -0.020845657 -0.05538017
0.008206416 -0.03184574 0.018128727 0.040136643 -0.022137513 0.002006517 0.0014480208 -0.05368121
-0.028246632 -0.043908212 0.02888559 0.018223 0.05197635 0.006658968 0.010038243 0.015474974
-0.03916978 0.0033151524 -0.0062732594 0.020051628 -0.04723904 0.016658599 -0.017797062 0.01712876
0.03279689 -0.0004307108 0.00822692 -0.04616801 0.04660832 0.029383536 0.01904736 0.066128924
0.007136371 0.022155121 0.038264364 0.017178247 -0.045514487 0.0018862716 0.007859133 -0.046200234
0.039586585 0.025952911 0.041124813 -0.037573036 0.06018604 0.06896682 -0.06378816 -0.051394653
-0.068070225 -0.0034824777 0.008178547 -0.003995974 0.01849924 -0.004321786 -0.05378246 0.024966966
-0.036884382 -0.03932161 -0.062496275 -0.023521192 -0.010157057 0.05919218 0.051703967 -0.041130114
0.028472044 -0.03711112 0.0064314012 0.053227134 0.010355283 0.057109285 0.06611551 -0.05359273
00000000: 3c73 8f3c 19f2 40bd 7801 1ebd 0970 2a3c
00000010: 10ee 823d f5f9 623c 03c7 773d 2f39 3f3d
00000020: 53fe 4e3d 309a 8e3d 3b5a c6bc 3e55 b93c
00000030: 70a3 01bd d64e 1f3a 969a e0bc 1326 213d
00000040: fb8c 24bb e133 90bc 82a6 673d f579 2d3c
00000050: 8f18 623d 2f59 973c bcf0 febc fb08 6c3d
00000060: 1560 e1bb 5474 09bd 7267 47bd c4b0 4fbd
00000070: b4be 253d 8cf2 053d 7fc6 fdbc 2a24 0ebc
00000080: 32ba 0e3d 0d2f 16bb b270 253d 5091 9c3c
00000090: 6fa6 12bb 0f02 e23c 289a eb3b e6b7 043c
000000a0: cc3d 553c 110f 5cbd 6d91 573d 094f 53bd
000000b0: 6abf e13c 7a9d 2a3d 01d3 513d 9e79 d8bb
000000c0: 5f27 8bbc 3b2d 1ebd ce05 6f3d e68b 823c
000000d0: 106f 823d eb0d 28bd 83c4 aabc 51d6 62bd
000000e0: 3474 063c ae70 02bd b282 943c 5266 243d
000000f0: bb59 b5bc c57f 033b 84cb bd3a d4e0 5bbd
00000100: 7b65 e7bc 19d9 33bd 79a1 ec3c 6748 953c
00000110: 27e5 543d 7933 da3b 7177 243c bf8a 7d3c
00000120: 7e70 20bd 0743 593b ea8f cdbb 5043 a43c
00000130: b97d 41bd 9d77 883c 25cb 91bc 9d51 8c3c
00000140: 0856 063d 06d1 e1b9 34ca 063c ab1a 3dbd
00000150: 5ee8 3e3d beb5 f03c 3609 9c3c 9a6e 873d
00000160: 38d8 e93b a87e b53c 18bb 1c3d 65b9 8c3c
00000170: 666d 3abd c63c f73a 98c3 003c 753c 3dbd
00000180: 8b25 223d 339b d43c 7e72 283d 2fe6 19bd
00000190: a385 763d 7a3e 8d3d 5ea3 82bd 3383 52bd
000001a0: 6768 8bbd 483a 64bb 50ff 053c a9f0 82bb
000001b0: b88b 973c c59d 8dbb ff4a 5cbd 8687 cc3c
000001c0: 1414 17bd b20f 21bd 18fc 7fbd 84af c0bc
000001d0: c969 26bc 8073 723d 8ac7 533d 0d78 28bd
000001e0: 343e e93c d401 18bd 81be d23b b204 5a3d
000001f0: 34a9 293c 6deb 693d 9267 873d 0d84 5bbd

fc3.weight f4 [1, 128]
-0.019907035 0.08004583 -0.031006362 0.05899269 0.035534754 -0.06893454 -0.03815846 -0.073032625
-0.059104484 -0.046511244 -0.059011746 0.090121694 0.02912754 -0.046084587 0.037096716 0.002654044
0.037044264 -0.0046031866 -0.060569867 0.010584002 -0.061257765 -0.07093891 0.004687572 0.024085063
0.041350324 0.09682662 0.081875674 -0.08187001 0.06612465 -0.03246617 0.024773704 0.04738548
0.06599405 -0.06443655 -0.009499368 0.029592562 0.051365975 -0.029937614 0.09621252 0.05675699
-0.08320317 -0.06397475 0.084414974 -0.077660054 -0.065513775 -0.07962166 0.0779198 0.037650418
-0.022973452 -0.054147217 -0.061480206 0.07259439 0.040124 0.036352266 -0.05972356 0.011168748
0.060469236 0.07295301 -0.07638392 -0.0444798 -0.032991946 -0.067421906 -0.08760627 -0.07588543
-0.016946472 0.02626457 0.069640726 -0.016363522 -0.054878842 0.032258123 -0.06380134 -0.049959138
0.013760367 0.021374103 0.030647706 0.010309679 0.032193277 0.07421379 0.049792808 0.051791944
0.06621098 -0.05953722 0.023047999 0.06135234 -0.08474147 -0.05896092 -0.052431416 -0.06253295
-0.02441882 -0.052740317 0.036559477 0.03191681 -0.07748157 0.022811523 -0.053500444 0.078136034
-0.07665163 0.080022104 0.0339384 -0.075060114 -0.036334213 0.04325761 -0.00031861826 -0.016418543
0.07153977 0.013768126 -0.026420254 -0.059209082 -0.044359006 0.014609171 -0.025556857 -0.076518
0.0894279 -0.020964982 0.01598611 0.03944036 -0.076073095 0.022002874 -0.044911996 -0.038733177
0.090239234 -0.065936595 0.040345173 -0.06673528 -0.068646535 -0.014035731 -0.027239611 0.037459373
00000000: 1414 a3bc 11ef a33d 0e01 febc 52a2 713d
00000010: e48c 113d 8d2d 8dbd 0c4c 1cbd 2192 95bd
00000020: 8b17 72bd 9382 3ebd 4db6 71bd b991 b83d
00000030: e19c ee3c 31c3 3cbd baf2 173d 78ef 2d3b
00000040: babb 173d 54d6 96bb 1c18 78bd 8668 2d3c
00000050: 6ce9 7abd 6b48 91bd 349a 993b 0a4e c53c
00000060: f55e 293d 094d c63d 6fae a73d 77ab a7bd
00000070: 5c6c 873d 3ffb 04bd 39f2 ca3c 4717 423d
00000080: e327 873d 4ff7 83bd 3da3 1bbc 1a6c f23c
00000090: 2165 523d ba3f f5bc 120b c53d 047a 683d
000000a0: 6c66 aabd 3205 83bd c2e1 ac3d 3c0c 9fbd
000000b0: 162c 86bd ae10 a3bd 6b94 9f3d 5337 1a3d
000000c0: d232 bcbc 79c9 5dbd abd2 7bbd 5eac 943d
000000d0: 1059 243d 1de6 143d b1a0 74bd 20fd 363c
000000e0: 97ae 773d 6368 953d 2c6f 9cbd 7330 36bd
000000f0: 9022 07bd 7f14 8abd eb6a b3bd d269 9bbd
00000100: 54d3 8abc cc28 d73c cc9f 8e3d cb0c 86bc
00000110: a3c8 60bd 1821 043d 47aa 82bd f4a1 4cbd
00000120: 2a73 613c be18 af3c e610 fb3c eee9 283c
00000130: 19dd 033d 66fd 973d 8bf3 4b3d ca23 543d
00000140: 9f99 873d 4ddd 73bd 28cf bc3c 974c 7b3d
00000150: f08c adbd 0181 71bd 53c2 56bd 4611 80bd
00000160: fa09 c8bc 3b06 58bd 64bf 153d 33bb 023d
00000170: a8ae 9ebd 3bdf ba3c 4823 5bbd c905 a03d
00000180: 88fb 9cbd a1e2 a33d fe02 0b3d 1eb9 99bd
00000190: 2fd3 14bd e42e 313d 380c a7b9 2e80 86bc
000001a0: 7183 923d b593 613c 4a6f d8bc 3985 72bd
000001b0: cab1 35bd 4e5b 6f3c 9d5c d1bc 78b5 9cbd
000001c0: fa25 b73d c1be abbc 4df5 823c 378c 213d
000001d0: 36cc 9bbd 5f3f b43c a4f5 37bd aea6 1ebd
000001e0: 59cf b83d c409 87bd fb40 253d 82ac 88bd
000001f0: 8e96 8cbd 1ff6 65bc 9b25 dfbc 006f 193d
